torch/cnn_demo/cifar_net.pth (torch, 251391 bytes, 10 tensors)

conv1.weight f4 [6, 3, 5, 5]
0	0x3e36e552	0.17860916
1	0xbd4e2a49	-0.050333295
2	0xbe3178bf	-0.17331217
3	0xbc535e9c	-0.012900975
4	0x3d59e82d	0.053199936
5	0x3cde8a40	0.027165532
6	0xbe89459b	-0.26810917
7	0xbe3e9511	-0.18611552
8	0x3e851444	0.25992024
9	0xbc56658d	-0.013085735
10	0xbe58a2b5	-0.21155818
11	0xbea81f49	-0.3283637
12	0x3c392974	0.011301387
13	0x3ea3c279	0.31984308
14	0x3dfe0a2b	0.12404283
15	0xbe8d99ce	-0.27656406
16	0xbdb2abfc	-0.0872421
17	0x3e8ba724	0.27275956
18	0x3dfbd9fd	0.12297437
19	0x3d6f2643	0.0583861
20	0xbdfaaace	-0.1223961
21	0x3d9d7090	0.07687485
22	0x3e702864	0.23452908
23	0x3c3abbc7	0.011397309
24	0x3cbf8e06	0.023383152
25	0x3dcef6a7	0.10105639
26	0xbdee512c	-0.11636576
27	0xbda04099	-0.07824821
28	0x3dccdc35	0.10002939
29	0x3dcaf481	0.09909917
30	0x3ca82044	0.020523198
31	0xbe3c301a	-0.18377724
32	0xbe02842d	-0.12745734
33	0x3eb891e7	0.36048815
34	0x3e13010d	0.1435587
35	0xbe0e56ac	-0.1390025
36	0xbec1f207	-0.37879965
37	0x3d980730	0.07423246
38	0x3e98c24c	0.29835737
39	0x3cca3c77	0.024687035
40	0xbe2dc98a	-0.16971412
41	0xbe6b9f4d	-0.23009987
42	0x3e152487	0.14564715
43	0x3e65f8fe	0.22458264
44	0xbd83ab3e	-0.06429146
45	0xbe88075b	-0.26568112
46	0xbc224c7e	-0.0099059325
47	0x3e694987	0.22781955
48	0xbb4a7f0a	-0.0030898475
49	0xbda58833	-0.080826186
50	0xbdbd8f3e	-0.09255837
51	0xbe8a6436	-0.2702958
52	0xbe2c7de9	-0.16844906
53	0x3e0f109c	0.1397118
54	0x3e358636	0.17726979
55	0xbdd045ad	-0.101695396
56	0xbed9ae40	-0.42515755
57	0xbe04dd27	-0.12974988
58	0x3e834bfb	0.25643906
59	0x3e192694	0.14956123
60	0xbea3ad7d	-0.319683
61	0xbeac28e6	-0.33624953
62	0x3e4c7c2a	0.1996924
63	0x3e9f2290	0.31081057
64	0x3e5c3093	0.21502905
65	0xbeaadd5a	-0.33372003
66	0xbe09b617	-0.13448368
67	0x3e64cad6	0.22343001
68	0x3e8e7524	0.27823746
69	0x3dd95174	0.10611239
70	0xbe45ba1e	-0.1930928
71	0x3e132e93	0.14373235
72	0x3e5a7164	0.21332318
73	0x3e0ed486	0.13948259
74	0xbd39b872	-0.045341916
75	0xbdfd813d	-0.12378166
76	0xbe70e2e2	-0.23524049
77	0xbc9c172a	-0.019054014
78	0xbdd0b66c	-0.10191044
79	0xbbdd0132	-0.0067445273
80	0xbe74d4b7	-0.2390927
81	0x3d483b02	0.0488844
82	0x3e8fd9c7	0.28095838
83	0xbd938d0a	-0.072046354
84	0xbe9b0ea6	-0.30284613
85	0x3aa5f8a2	0.0012662599
86	0xbbb7e27f	-0.0056117172
87	0x3d8de6f1	0.06928814
88	0xbeb11201	-0.34584048
89	0xbecac399	-0.39602354
90	0x3d8ddc82	0.06926824
91	0xbdd7df2c	-0.105406135
92	0xbeadd638	-0.33952498
93	0x3d99b818	0.07505816
94	0xbd806a5d	-0.06270287
95	0x3dbcb162	0.092135206
96	0xbe8d0183	-0.27540216
97	0xbeae8cd7	-0.34091827
98	0x3e6f1e13	0.23351316
99	0xbd94dc0b	-0.07268532
100	0xbbf0871e	-0.007340326
101	0xbd3abe44	-0.045591608
102	0x3d6b3e41	0.057432417
103	0xbe08a97a	-0.133459
104	0x3d972751	0.07380546
105	0xbd21707c	-0.039413914
106	0x3e022c23	0.1271215
107	0x3eabfa17	0.3358924
108	0xbbe461e6	-0.006969678
109	0x3cf72e07	0.030173315
110	0x3d7b7155	0.06138738
111	0x3eb2f39b	0.3495148
112	0x3eb4dc8d	0.35324517
113	0xbe2e97a4	-0.17050034
114	0xbe070824	-0.13186699
115	0x3e98afe5	0.29821697
116	0x3dc12ebb	0.09432741
117	0xbdc76b1e	-0.09737228
118	0x3e8c6920	0.27423954
119	0x3e1718e2	0.14755586
120	0x3e92f43b	0.28701958
121	0xbe2bed38	-0.1678971
122	0xbd0af4b5	-0.033924777
123	0x3ee5c5e7	0.4487755
124	0x3e90287f	0.28155896
125	0xbe0f69f8	-0.14005268
126	0xbe85f83b	-0.26165947
127	0x3d9b25f1	0.07575596
128	0xbe2d46c4	-0.16921526
129	0x3d883046	0.066498324
130	0xbde9dd5a	-0.114191726
131	0xbd139423	-0.036029946
132	0x3e79c0d5	0.24389966
133	0xbb848180	-0.004043758
134	0xbd972d0e	-0.073816404
135	0x3d26ea24	0.040750638
136	0x3cd3b2da	0.025842119
137	0x3e198f6c	0.14996117
138	0xbe5cd472	-0.21565416
139	0xbe650148	-0.2236377
140	0x3e4c63af	0.19959901
141	0x3ccf0d2e	0.02527484
142	0xbe0bd6da	-0.13656178
143	0x3d4fe61f	0.05075657
144	0xbd914a44	-0.07094243
145	0x3d9fd39a	0.07804032
146	0xbe929669	-0.2863038
147	0xbe781f7b	-0.24230759
148	0x3d9fe19b	0.07806703
149	0xbdaec6ec	-0.08534035
150	0x3e1d0aae	0.15336105
151	0x3e8680ee	0.2627024
152	0x3e350ba8	0.17680228
153	0x3dd8b71a	0.10581799
154	0xbe091833	-0.13388138
155	0xbe66fb88	-0.22556889
156	0xbeafa63b	-0.3430651
157	0xbeeb2018	-0.45922923
158	0xbea787b4	-0.3272072
159	0xbe67d605	-0.22640236
160	0xbe87ed97	-0.26548454
161	0xbf00af9a	-0.50267947
162	0xbedd1c63	-0.4318572
163	0xbe5ccd56	-0.21562704
164	0xbcb9ab6b	-0.022664746
165	0x3e1a3ddc	0.1506266
166	0x3e8450b6	0.25842828
167	0x3ec795ce	0.3898148
168	0x3ed137b7	0.4086282
169	0x3ea8a120	0.3293543
170	0x3e03f369	0.12885822
171	0x3e988b91	0.2979398
172	0x3eb3e73a	0.3513735
173	0x3e1f0a0b	0.15531175
174	0x3e07767d	0.13228793
175	0x3e69d633	0.22835617
176	0x3e9775fd	0.29582205
177	0x3e1ad3e6	0.15119895
178	0x3e0294bb	0.12752049
179	0x3bbbcdcd	0.0057313205
180	0xbd3d05c3	-0.046148073
181	0xbe28560d	-0.16439076
182	0xbe5ccac7	-0.21561728
183	0xbe871bc0	-0.2638836
184	0xbe2b4463	-0.16725306
185	0xbe95d4df	-0.2926397
186	0xbea90d27	-0.33017847
187	0xbef5c91e	-0.48005003
188	0xbebff042	-0.3748799
189	0xbe1a1ac0	-0.15049267
190	0xbd916b24	-0.071005136
191	0x3e774865	0.2414871
192	0x3e6cb4d7	0.2311586
193	0x3e5c6bd4	0.21525508
194	0x3e826b0c	0.25472295
195	0x3bec8e33	0.0072191
196	0x3cb2ece0	0.021841466
197	0x3d6399fa	0.055566765
198	0x3d9d6023	0.07684352
199	0xbdb84a81	-0.089985855
200	0x3decda4f	0.115650766
201	0x3ebc04f9	0.36722544
202	0x3e7559c8	0.2396003
203	0x3e94f00a	0.29089385
204	0x3dd86de2	0.105678335
205	0x3d4db868	0.05022469
206	0xbd26d392	-0.040729113
207	0xbe0319d7	-0.12802826
208	0xbded2330	-0.11578977
209	0x3dca28bc	0.09871051
210	0xbe60e913	-0.21963911
211	0xbebafc8d	-0.36520806
212	0xbebc4562	-0.36771685
213	0xbe1dcf86	-0.15411195
214	0x3ada4aa7	0.0016654328
215	0x3cc7bea8	0.024382904
216	0x3e1804e2	0.14845613
217	0x3e58c254	0.2116788
218	0x3e8c4fc3	0.27404603
219	0x3e0d8160	0.13818884
220	0xbd763586	-0.060109638
221	0xbcbf1aa4	-0.023328133
222	0x3de2b45f	0.11069559
223	0x3d8e30c4	0.06942895
224	0xbe1d431d	-0.15357633
225	0x3e15b6ca	0.1462051
226	0x3edc750d	0.43058053
227	0x3ed266c7	0.41094038
228	0x3e4284cb	0.18995969
229	0x3d8b700e	0.06808482
230	0xbe048944	-0.12942988
231	0xbd814980	-0.06312847
232	0xbdaa9242	-0.08328678
233	0xbd809b5e	-0.06279634
234	0xbd29e9e4	-0.04148282
235	0xbd8fc843	-0.07020619
236	0xbe77e1ab	-0.24207179
237	0xbe903a94	-0.28169692
238	0xbe5d36bb	-0.2160291
239	0xbdac0043	-0.083984874
240	0xbe555c48	-0.20835984
241	0xbe8ba1f6	-0.27272004
242	0xbead0f46	-0.33800715
243	0xbea7ea04	-0.32795727
244	0xbeaec863	-0.34137258
245	0xbcaec518	-0.021334216
246	0xbe80283e	-0.25030702
247	0xbdf2e14a	-0.11859377
248	0xbe840bec	-0.25790346
249	0xbea58676	-0.32329148
250	0xbd6a97f7	-0.05727383
251	0x3e25f82a	0.16207948
252	0x3e1ecb56	0.15507254
253	0x3d0ded6e	0.03465026
254	0xbe0846af	-0.13308214
255	0xbe1b1613	-0.1514514

conv1.bias f4 [6]
0	0xbe805011	-0.25061086
1	0x3e9582f5	0.29201475
2	0xbea254e7	-0.317054
3	0xbde4c844	-0.1117101
4	0x3ea05e2d	0.3132185
5	0xbe96be76	-0.29442185

conv2.weight f4 [16, 6, 5, 5]
0	0x3ccc834f	0.024964957
1	0x3dba3e8d	0.09093962
2	0xbceaed91	-0.028677734
3	0xbda5ad48	-0.080896914
4	0x3e276a03	0.16349034
5	0xbd147934	-0.0362484
6	0xbd48ae82	-0.04899455
7	0x3d88e4d6	0.06684272
8	0xbe362a3c	-0.17789549
9	0xbdc22cfc	-0.09481236
10	0x3baad1c4	0.0052129943
11	0x3dc334b1	0.095315345
12	0x3d8bd565	0.06827811
13	0x3d2ea060	0.042633414
14	0xbda7c686	-0.08192162
15	0xbd4beca5	-0.04978623
16	0x39bc2eda	0.0003589306
17	0x3d9dd58c	0.077067465
18	0x3d36963e	0.044576876
19	0xbe171d2a	-0.14757219
20	0xbde94cd8	-0.1139161
21	0xbc922470	-0.01783964
22	0xbdc1d56d	-0.09464536
23	0x3d4f9c4c	0.050686166
24	0x3ce7e6cf	0.0283083
25	0x3e0e0ed1	0.1387284
26	0x3e11ced5	0.14239056
27	0x3e824a4b	0.25447306
28	0x3e638994	0.2222045
29	0x3dc776f4	0.097394854
30	0x3b66fba0	0.0035245195
31	0xbde1f0ad	-0.110322334
32	0x3db25c7f	0.087090485
33	0x3df9850a	0.12183578
34	0x3d6affdd	0.057372916
35	0xbdb09fed	-0.086242534
36	0xbda871c0	-0.08224821
37	0xbe1a4b86	-0.15067872
38	0x3cc158ff	0.023602007
39	0x3e499c71	0.19688584
40	0xbe3d1f30	-0.18468928
41	0xbe27c58b	-0.1638395
42	0xbdfee08d	-0.124451734
43	0xbe356650	-0.1771481
44	0x3d7c457c	0.061589703
45	0xbe3dbd0c	-0.18529147
46	0xbe452a0a	-0.19254318
47	0xbe9027ca	-0.28155357
48	0xbe3f5d1f	-0.18687867
49	0xbd6971d1	-0.05699331
50	0xbcfd38f4	-0.030910946
51	0x3c40c536	0.011765769
52	0xbd366049	-0.04452542
53	0xbd28ed3f	-0.04124188
54	0xbbb440dd	-0.0055008964
55	0xbbb92d0f	-0.0056511234
56	0xbd855b3e	-0.06511544
57	0x3cb7afa8	0.022422627
58	0x3cee1f6b	0.029067716
59	0x3e14de14	0.14537841
60	0xbd099a9f	-0.033594724
61	0x3d9ddd94	0.07708278
62	0x3cc4eae9	0.024037795
63	0x3db463ae	0.08808075
64	0x3d44d374	0.04805322
65	0xbc34d372	-0.011036741
66	0xbda3f1a0	-0.08005071
67	0xbda3baec	-0.07994637
68	0xbcec491e	-0.028843459
69	0xbcc5e227	-0.02415569
70	0xbdc0666e	-0.09394537
71	0xbe67a2bc	-0.22620672
72	0xbe2fef99	-0.17181243
73	0xbdbbdc18	-0.09172839
74	0xbd913150	-0.07089484
75	0x3d263b90	0.040584147
76	0xbcfc8eb2	-0.030829761
77	0x3c1c9bbe	0.009558616
78	0x3e0999ff	0.13437651
79	0x3e1ee24f	0.15516017
80	0xbd969346	-0.07352309
81	0xbd01f683	-0.031729233
82	0xbd054a29	-0.032541428
83	0x3ce40809	0.027835863
84	0x3e508e88	0.20366871
85	0x3cccffc7	0.025024308
86	0xbd1c1418	-0.0381051
87	0x3d57728d	0.05259948
88	0xbdc67dee	-0.09691988
89	0x3da55929	0.080736466
90	0xbc682b40	-0.014170468
91	0xbccf9e72	-0.025344107
92	0xbd30050c	-0.042973563
93	0xbc984b17	-0.018590493
94	0x3cf59b08	0.029981151
95	0xbd04d218	-0.032426924
96	0xbd93be01	-0.07213975
97	0xbd1e8a7c	-0.038706288
98	0x3ce518aa	0.027965862
99	0xbdf93bf9	-0.12169642
100	0x3d253c8f	0.040340956
101	0xbde38bb6	-0.11110632
102	0xbd587011	-0.05284125
103	0xbe7955b1	-0.24349095
104	0xbe1e9349	-0.15485872
105	0x3d4f14ab	0.05055682
106	0xbd371627	-0.04469886
107	0x3c14286f	0.009042843
108	0xbe31d62c	-0.17366856
109	0xbe0e7fdd	-0.13915963
110	0xbd8699d4	-0.06572309
111	0xbda2c2ef	-0.07947337
112	0x3c0f8425	0.008759533
113	0x3b6bce47	0.0035981105
114	0xbd7531bf	-0.059861895
115	0x3d6565e8	0.05600539
116	0x3dced6ea	0.10099585
117	0x3d9a8c31	0.07546271
118	0x3d8dcd26	0.069238946
119	0x3c08c9a2	0.008348854
120	0x3d859f50	0.06524527
121	0x3daf74e2	0.085672155
122	0x3df0a9d6	0.11751144
123	0x3e0a2e7a	0.13494292
124	0x3e65bc28	0.22435057
125	0x3e102448	0.1407634
126	0x3dc88a8f	0.09792053
127	0x3d21a671	0.03946537
128	0x3e81fdac	0.2538885
129	0x3e9507a0	0.2910738
130	0xbc940f6f	-0.018073766
131	0x3cdf3034	0.027244665
132	0xbd31e3db	-0.04343019
133	0x3d8c820c	0.06860742
134	0x3e7b97d7	0.24569641
135	0xbd973c41	-0.073845394
136	0xbdca44aa	-0.09876378
137	0xbd6f10fc	-0.058365807
138	0xbd60a7b5	-0.054847438
139	0xbca5c97b	-0.020237675
140	0xbe33aa07	-0.17545329
141	0xbe0f8119	-0.1401409
142	0xbdc19641	-0.09452487
143	0xbe07ede6	-0.13274345
144	0xbe286ca9	-0.164477
145	0xbda0017c	-0.07812783
146	0xbe199fc2	-0.15002349
147	0xbdd8f678	-0.10593885
148	0xbe310e2c	-0.17290562
149	0xbe73cc97	-0.23808514
150	0xbd7f6639	-0.062353346
151	0xbd0f5826	-0.034996174
152	0xbd426efb	-0.04746912
153	0xbc87d599	-0.016581343
154	0x3e341293	0.1758521
155	0xbdd07fc4	-0.10180619
156	0x3dd1b766	0.102400586
157	0xbd9e2ec2	-0.07723762
158	0xbd357f39	-0.044310782
159	0x3e4079c9	0.18796457
160	0xbe0c2231	-0.13684918
161	0x3d700a71	0.058603708
162	0x3d057045	0.03257777
163	0xbdbd6010	-0.09246838
164	0x3e0c266b	0.1368653
165	0xbe1d8697	-0.15383373
166	0x3c4cba9e	0.012495665
167	0xbc13ccf2	-0.009021031
168	0xbcab0f02	-0.02088118
169	0x3dd8dc6d	0.10588918
170	0xbdd969a8	-0.106158555
171	0xbc948329	-0.018128948
172	0xbdfe1c89	-0.124077864
173	0x3c0a183f	0.008428632
174	0x3da86221	0.082218416
175	0xbd4b250c	-0.049595878
176	0xbad10460	-0.0015946738
177	0x3c53ef75	0.012935509
178	0xbca4651c	-0.020067744
179	0x3b8016ba	0.003908959
180	0xbc0bb130	-0.0085261315
181	0x3c8f8ee1	0.017524185
182	0x3c7e244c	0.015511584
183	0xbdfb12c3	-0.12259438
184	0xbdf3662e	-0.118847236
185	0xbd214fd2	-0.039382763
186	0xbd6d2552	-0.05789692
187	0x3dab438c	0.08362493
188	0xbdc4516d	-0.09585843
189	0xbdf774d8	-0.12082833
190	0xba9a915a	-0.0011792586
191	0xbd1c5fcc	-0.038177297
192	0x3c39fe68	0.011352159
193	0xbd96683a	-0.073440984
194	0xbd455062	-0.048172362
195	0xbd9b154c	-0.075724214
196	0xbd94f560	-0.07273364
197	0x3de5b69c	0.112164706
198	0xbc88fb5d	-0.016721422
199	0xbb43f77b	-0.0029902149
200	0x3d5ea776	0.054358922
201	0x3df50c98	0.11965293
202	0x3d18ec7d	0.037334908
203	0xbe16de9c	-0.14733356
204	0x3cb0d4ea	0.0215859
205	0x3d89450f	0.06702625
206	0x3ca040ea	0.019562203
207	0xbdeafd82	-0.11474134
208	0xbe05759c	-0.13033146
209	0xbe2eeaa2	-0.17081693
210	0x3d012e9b	0.031538587
211	0x3d003d92	0.031308718
212	0xbe1daf7f	-0.15398978
213	0xbe31cbda	-0.1736292
214	0xbe2ca8bd	-0.16861244
215	0xbd49a64a	-0.04923085
216	0xbc10e773	-0.008844244
217	0xbe6316c0	-0.22176647
218	0xbe07c5aa	-0.13258997
219	0xbdf4861f	-0.11939644
220	0x3dc2e67a	0.09516616
221	0xb83d3080	-4.510628e-05
222	0x3d3da0b7	0.046295848
223	0xbe045006	-0.12921152
224	0x3c4f2287	0.012642509
225	0x3d08a3ec	0.033359453
226	0xbd316b93	-0.04331548
227	0x3db1b46c	0.08676991
228	0x3dd038f6	0.101671144
229	0x3d703efc	0.058653817
230	0xbd18ea71	-0.037332956
231	0xbcf7f9a1	-0.0302704
232	0x3db6d546	0.089273974
233	0xbc25a211	-0.01010944
234	0xbcaa4f7f	-0.02078986
235	0x3dc62237	0.09674495
236	0x3cb219f7	0.021740897
237	0x3d8068f7	0.062700205
238	0xbc0675f2	-0.008206831
239	0xbc6fae48	-0.014628954
240	0x3c13fc0c	0.009032261
241	0xbd42bdf1	-0.047544423
242	0xbd545b20	-0.051844716
243	0xbc408219	-0.011749768
244	0x3cba53a9	0.02274497
245	0x3c88119a	0.016609956
246	0x3bd9b641	0.006644041
247	0x3d90e761	0.07075382
248	0x3c4b7781	0.012418629
249	0xbd30d5f1	-0.04317278
250	0xbaab41a2	-0.0013065825
251	0x3c3ce49b	0.011529113
252	0xbd343040	-0.043991327
253	0xbcbcc257	-0.023041887
254	0x3b2a45a1	0.0025981443
255	0x3d887222	0.06662394

conv2.bias f4 [16]
0	0x3df1c4f6	0.118051454
1	0xbe3b9eea	-0.1832234
2	0xbe83341e	-0.256257
3	0xbdc04af1	-0.09389294
4	0x3e9e04de	0.30863088
5	0x3ed6066c	0.41801775
6	0xbf040442	-0.51568997
7	0xbf14afa8	-0.5808053
8	0x3e377fd3	0.17919855
9	0xbe7e1c68	-0.24815524
10	0xbe173643	-0.14766793
11	0x3f1e46dd	0.6182688
12	0x3ea871a0	0.3289919
13	0x3f444e73	0.76682204
14	0xbe5b3154	-0.21405536
15	0xbd10ec2c	-0.03538148

fc1.weight f4 [120, 400]
0	0x3c07f5c2	0.008298339
1	0xbcf990d5	-0.03046457
2	0xbaf6bc80	-0.0018824488
3	0xbce7494d	-0.028233195
4	0x3d328699	0.043585394
5	0xbca2835c	-0.019838028
6	0xbd34a9e6	-0.04410734
7	0xbd3aa0a4	-0.045563355
8	0xbc77850f	-0.015107407
9	0x3cde7257	0.02715413
10	0xbd4ca9f2	-0.04996676
11	0xbd4d5a92	-0.050135203
12	0xbced8af3	-0.02899692
13	0xbd1a4112	-0.037659712
14	0x3d5b6c09	0.053569827
15	0xbd2b7d30	-0.041867435
16	0xbd1b9483	-0.03798343
17	0x3d1850a4	0.03718628
18	0x3ced173c	0.028941743
19	0xbd369c75	-0.044582803
20	0xbb6c022a	-0.0036012032
21	0x3d43bf54	0.047789887
22	0xbc2ae511	-0.01043059
23	0xbc9de9b6	-0.019276481
24	0x3d0aa475	0.033848245
25	0x3d232ffb	0.03984068
26	0xbcc112ba	-0.0235685
27	0x3cd21234	0.025643446
28	0x3c890ee7	0.016730739
29	0xbb0a7a02	-0.0021129851
30	0x3d03cfe4	0.03218068
31	0xbd47f40d	-0.04881673
32	0x3c6e5370	0.01454626
33	0xbc7e049d	-0.01550403
34	0x3d57ca97	0.05268344
35	0xbb9c2d8a	-0.004766171
36	0x3ce946cb	0.02847614
37	0xbd03a19c	-0.032136545
38	0xbd2a7185	-0.041612167
39	0x3d344bfa	0.04401777
40	0xbc4dc51c	-0.012559202
41	0xbc1ae78e	-0.009454621
42	0x3c878e33	0.016547298
43	0xbcaa69ea	-0.020802457
44	0x3d28d8b2	0.04122228
45	0xbc3a6030	-0.011375472
46	0xbd10ab60	-0.035319686
47	0x3d3af5ca	0.04564456
48	0xbcccf6f1	-0.025020095
49	0xbc5df70e	-0.013547672
50	0xbb247631	-0.0025094862
51	0x3bd132dd	0.006384237
52	0xbc5ad56e	-0.01335655
53	0x3b8c559e	0.0042826673
54	0x3cbd9d7b	0.023146382
55	0x3c746ff2	0.014919268
56	0x3d30df5d	0.043181766
57	0x3d3eda1b	0.04659472
58	0xbd0241ac	-0.03180091
59	0xbbc6d0e4	-0.006067382
60	0x3d3ce1c1	0.046113733
61	0x3d39c39c	0.045352563
62	0x3ba8f9fc	0.0051567536
63	0xbc96c777	-0.01840566
64	0xbd4ac93e	-0.049508326
65	0xbca37c69	-0.019956784
66	0xb990520e	-0.00027526956
67	0x3c1ddee9	0.009635665
68	0xbc3af177	-0.011410109
69	0xbbe5f7c6	-0.0070180623
70	0xbc8fd0d6	-0.017555635
71	0x3d0c4c85	0.034252662
72	0x3d2bccd5	0.04194339
73	0xbd3070f6	-0.043076478
74	0x3ce82215	0.028336564
75	0x3b938085	0.0045014047
76	0x3d1b169a	0.03786335
77	0xbc51b7ac	-0.012800138
78	0x3d2a475b	0.041571956
79	0xbc84d45c	-0.016214542
80	0x3c13dfe0	0.009025544
81	0xbd12330e	-0.03569322
82	0x3c21e8e1	0.009882183
83	0xbc8b900e	-0.017036464
84	0xbca5c8f0	-0.020237416
85	0xbbed9350	-0.007250227
86	0x3d0d3726	0.03447642
87	0x3c2118be	0.009832559
88	0x3d1809da	0.03711877
89	0xbc5f81a6	-0.01364175
90	0xbb9d26df	-0.0047958936
91	0xbc522b20	-0.012827665
92	0x3d2eb330	0.042651355
93	0xbc8ab923	-0.016933983
94	0xbcc65677	-0.024211152
95	0x3d216dc1	0.03941131
96	0xbd0576a3	-0.032583844
97	0x3cf4ac91	0.029867442
98	0xbbdc6130	-0.006725453
99	0x3d26c738	0.040717334
100	0xbcb91eb7	-0.022597654
101	0x3b9e0c79	0.004823264
102	0xbbbdcf54	-0.0057925377
103	0xbcc217f1	-0.023693057
104	0x3bf393e7	0.007433403
105	0x3b911bc0	0.004428357
106	0xbc4c09d5	-0.012453516
107	0x3c82f70a	0.015986938
108	0xbccffae8	-0.025388196
109	0x3c6aea18	0.014338039
110	0xbd2f9487	-0.042866256
111	0x3cf93c3f	0.030424235
112	0x3cc6ffd7	0.024291916
113	0x3cf6f522	0.030146185
114	0xbc9fe8bc	-0.019520156
115	0xbd45bf24	-0.04827799
116	0x3d1a2c4f	0.037639912
117	0x3ce69e4f	0.02815166
118	0x3ca12fad	0.019676054
119	0xbd5100ee	-0.051026277
120	0x3ba73d4d	0.005103743
121	0xbc606976	-0.013697019
122	0x3d0908ce	0.033455662
123	0x3cd42ed4	0.025901236
124	0xbccd35d8	-0.025050089
125	0xbc20b857	-0.009809575
126	0xbbe12701	-0.0068711047
127	0x3c91e91a	0.017811347
128	0xbd2610dc	-0.040543422
129	0xbc968c66	-0.018377494
130	0xbc8c6754	-0.017139114
131	0x3bce3c64	0.00629382
132	0x3d25cbbd	0.040477503
133	0xbcbbe296	-0.022935193
134	0xbd17b766	-0.037040137
135	0xbca0b826	-0.019619059
136	0x3cfe63f4	0.03105352
137	0xbd3384fe	-0.043828003
138	0x3c88b889	0.016689556
139	0xbd0a970b	-0.033835452
140	0xbd27664a	-0.040869035
141	0x3cfcec96	0.030874532
142	0xbd31390c	-0.043267295
143	0xbcf5af6a	-0.02999087
144	0xbd087155	-0.033311207
145	0xbd0ee677	-0.034887757
146	0xbb6e6ac0	-0.0036379546
147	0xbbc9c3c5	-0.0061573707
148	0xbcace6bc	-0.021106116
149	0x3c5eec08	0.013606079
150	0xbd0da9f9	-0.034585927
151	0x3b21181e	0.0024581025
152	0xbc1b3001	-0.009471894
153	0xbcf15544	-0.029459603
154	0x3c55743b	0.0130282
155	0x3d272086	0.0408025
156	0x3c9163f9	0.017747866
157	0x3b46ff73	0.0030364662
158	0xbd1bab06	-0.038004898
159	0xbd1f1c92	-0.038845606
160	0xbba1fdea	-0.004943599
161	0xbd4b479f	-0.04962885
162	0xbd28de2a	-0.041227497
163	0xbbd0cdb3	-0.0063721775
164	0xbc3e4c07	-0.011614806
165	0x3ca0336b	0.019555768
166	0xbc15ea24	-0.009150062
167	0xbb039106	-0.0020075454
168	0xbcf2c71a	-0.029635955
169	0xbc365599	-0.0111288065
170	0xbd3fee3d	-0.04685806
171	0x3ce0d60f	0.027445821
172	0x3b9be1af	0.004757128
173	0xbd2203ec	-0.03955452
174	0xbc8b39e5	-0.01699538
175	0x3bf76487	0.0075498256
176	0xbd4be400	-0.049777985
177	0x3d477cf1	0.048703138
178	0x3c6b7e14	0.014373321
179	0xbd57772e	-0.052603893
180	0xbd0deb14	-0.034648016
181	0xbc7844eb	-0.01515315
182	0xbd35edb0	-0.04441613
183	0x3d04fa78	0.032465428
184	0xbcea1a84	-0.028577097
185	0x3cfe7a5a	0.031064201
186	0x3c257da9	0.0101007605
187	0xbbd68e95	-0.006547759
188	0xbd399992	-0.04531247
189	0x3cc4cd2d	0.024023617
190	0x3ce37253	0.027764475
191	0xba092a49	-0.0005232436
192	0xbd433f1f	-0.04766762
193	0xbc5f011a	-0.0136111025
194	0x3cb7881d	0.022403771
195	0xbc78265b	-0.015145863
196	0xbd3e7a93	-0.046503615
197	0x3c8d93a5	0.017282316
198	0xbd2f8289	-0.042849097
199	0x3cd794b0	0.026316017
200	0x3d408cfd	0.047009457
201	0x3ccf2612	0.025286708
202	0x3d32339c	0.04350625
203	0xbd0cc1aa	-0.03436438
204	0xba829096	-0.0009961303
205	0xbd030f58	-0.031997055
206	0xbc210d1b	-0.009829785
207	0xbc5a4df3	-0.013324249
208	0xbd0ad42b	-0.033893745
209	0xbd13c325	-0.036074776
210	0xbd233a90	-0.03985077
211	0xbc60bbdb	-0.013716663
212	0xbce3f106	-0.02782489
213	0x3d277dbe	0.0408914
214	0x3d0b9d0c	0.03408532
215	0x39cd180c	0.00039118563
216	0x3cc46486	0.023973715
217	0xbc18e45c	-0.009331789
218	0x3ca53a7b	0.020169487
219	0x3ca7fdec	0.020506822
220	0xbd13752c	-0.036000416
221	0x3c98664c	0.018603466
222	0xbb30eca5	-0.002699652
223	0x3d17fbbe	0.037105314
224	0xbd142c51	-0.036175076
225	0x3d30fe8b	0.0432115
226	0xbbbc06c6	-0.005738112
227	0x3c58b135	0.013225843
228	0xbc44eba7	-0.0120190745
229	0xbd28705d	-0.041122783
230	0xbcfc00cd	-0.0307621
231	0x3b30462a	0.002689729
232	0x3c1faf42	0.009746375
233	0x3bfa4073	0.0076370775
234	0xbc6a5254	-0.014301855
235	0xbcee64a4	-0.029100724
236	0x3ca08d7a	0.019598711
237	0xbb730dd0	-0.003708709
238	0xbcd31ebf	-0.025771497
239	0x3cfd7b12	0.030942474
240	0x3d2b3ce3	0.041806113
241	0x3ca5b20e	0.020226505
242	0xbce5ac95	-0.028036395
243	0x3c4720f2	0.012153851
244	0x3d23cabd	0.03998827
245	0xbd478089	-0.048706565
246	0x3d163384	0.036670223
247	0x3d32983a	0.043602206
248	0x3bdd8ae6	0.0067609427
249	0xbd30eb90	-0.0431934
250	0xbc4973d4	-0.012295682
251	0xbd3ee398	-0.04660377
252	0xbd0d6531	-0.03452033
253	0x3ca8e13a	0.020615209
254	0x3cb900f1	0.022583457
255	0x3d0bc836	0.034126483

fc1.bias f4 [120]
0	0x3d197f71	0.037475053
1	0x3cf646e6	0.030063104
2	0xbd3e787e	-0.04650163
3	0xbc2e162a	-0.0106254015
4	0x3d17fe5f	0.03710782
5	0xbd462f53	-0.048384976
6	0x3dbef3b0	0.093238235
7	0xbc017024	-0.007900272
8	0x3e0c28fa	0.13687506
9	0xbd45c5e0	-0.04828441
10	0xbd1ade3b	-0.03780959
11	0xbcb8d07c	-0.02256035
12	0x3dbab4d7	0.09116524
13	0x3cbf9da4	0.023390599
14	0xbdad0607	-0.08448415
15	0x3d29305f	0.041305896
16	0x3e3f38c6	0.18674001
17	0x3dbbd1e7	0.09170895
18	0xbc767605	-0.0150427865
19	0xbce7067f	-0.02820134
20	0x3d9c0608	0.07618338
21	0x3c285df3	0.0102763055
22	0x3c0f41b1	0.008743689
23	0x3d84e634	0.0648922
24	0x3bf8945e	0.007586046
25	0xbd295dd6	-0.041349255
26	0x3d13cc0b	0.036083262
27	0x3d8189f0	0.063251376
28	0x3d66c39c	0.05633889
29	0x3d833f4f	0.064085595
30	0x3de13977	0.10997289
31	0x3e23b75b	0.15987913
32	0xbacab778	-0.0015466055
33	0xbd418318	-0.04724416
34	0xbdd1bb64	-0.1024082
35	0x3d932c9d	0.07186244
36	0xbce17529	-0.027521687
37	0x3d568073	0.052368592
38	0x3d640e03	0.055677425
39	0xba7f230a	-0.0009732699
40	0x3d17224b	0.03689794
41	0xbdfe1ab8	-0.1240744
42	0xbba23d68	-0.004951168
43	0x3c830f61	0.015998544
44	0x3b83acfa	0.004018423
45	0xbcbca596	-0.023028176
46	0x3d63bc9a	0.055599786
47	0x3d7e3501	0.062062267
48	0x3df42337	0.11920779
49	0xbbd1b3d9	-0.0063996133
50	0xbca5cccf	-0.020239262
51	0x3e476f5f	0.19476078
52	0xbd918d19	-0.0710699
53	0x3d4a3e07	0.04937556
54	0x3da1736d	0.07883344
55	0x3d84badf	0.06480955
56	0xbe028476	-0.12745842
57	0xbd2cb314	-0.04216297
58	0x3a48c39f	0.00076585443
59	0x3da390cb	0.079866014
60	0xbcc25c10	-0.02372554
61	0x3cf27500	0.029596806
62	0x3d90f01d	0.07077048
63	0xbd3cd2b1	-0.04609937
64	0xbcb5db98	-0.022199437
65	0xbd4dcfee	-0.050247125
66	0x3d51e371	0.051242296
67	0xbbe1519e	-0.0068761846
68	0xbc6db5ad	-0.014508647
69	0x3e4111ab	0.18854396
70	0x3d70d673	0.058798265
71	0x3d5ffc96	0.054684244
72	0xbdc27940	-0.09495783
73	0xbd45f186	-0.048326038
74	0x3d8e9ee8	0.06963903
75	0x3dd31167	0.103060536
76	0xbb93c3be	-0.0045094183
77	0x3d729ae7	0.059229758
78	0x3a46ca83	0.0007583277
79	0xbd85ad7f	-0.065272324
80	0x3dbb08f6	0.091325685
81	0xbc5b8350	-0.013398007
82	0x3d83c3a5	0.064338006
83	0x3d4e6442	0.050388582
84	0xbd65d13d	-0.05610775
85	0xbbdaa668	-0.006672669
86	0xbc872978	-0.016499266
87	0xbe1ad984	-0.15122038
88	0x3d17bf4e	0.037047677
89	0x3d50a134	0.050934985
90	0xbd1ec536	-0.038762294
91	0xbdb9895b	-0.090594016
92	0xbd696573	-0.056981515
93	0xbd4a2636	-0.049352847
94	0x3c21e0b0	0.00988023
95	0x3c4b1137	0.012394241
96	0x3d1bb12c	0.03801076
97	0xbda39604	-0.079875976
98	0xbb76bd23	-0.0037649355
99	0x3e21fe78	0.15819728
100	0xbd7a0ba8	-0.061046273
101	0x3d115525	0.03548159
102	0xbbf191c9	-0.0073721153
103	0x3d1daafb	0.038493138
104	0x3e3149e9	0.1731335
105	0xbdd796df	-0.10526823
106	0x3ce8c97b	0.028416386
107	0x3dc6472a	0.09681542
108	0x3e14b621	0.14522602
109	0x3c72f9fe	0.014830111
110	0xbb13271c	-0.002245373
111	0xbc12a8b0	-0.008951351
112	0x3d8eeb4f	0.06978475
113	0x3d2ce3e6	0.04220953
114	0xbc99b48e	-0.018762853
115	0xbd2f9bd0	-0.042873204
116	0xbd9d1f92	-0.07672037
117	0x3e19dbfb	0.15025322
118	0xbe0111ef	-0.12604497
119	0x3e1c1765	0.152433

fc2.weight f4 [84, 120]
0	0x3d167560	0.03673303
1	0x3d7353e6	0.059406184
2	0xbc864cbe	-0.016394015
3	0x3d8b1719	0.06791515
4	0xbcacc356	-0.021089237
5	0xbd006237	-0.031343665
6	0xbc7b1d10	-0.015326753
7	0x3d29a4c9	0.041416917
8	0xbdb9bd0e	-0.090692624
9	0xbbe08b02	-0.0068525085
10	0xbd523b7c	-0.05132626
11	0xbcfba39d	-0.030717665
12	0x3bbc18eb	0.005740275
13	0x3daaefa4	0.08346489
14	0x3db57012	0.08859266
15	0xbc3364dd	-0.010949341
16	0xbc502bab	-0.012705724
17	0xbd2f1e05	-0.04275324
18	0x3d762c0e	0.060100608
19	0xbd37dbdb	-0.044887405
20	0xbd2fb1c4	-0.04289414
21	0x3cbaf36a	0.022821147
22	0xbda65f54	-0.08123651
23	0xbc4be24c	-0.01244409
24	0xba9f4971	-0.0012152625
25	0xbcedb7e7	-0.029018356
26	0x3d8353e3	0.064124845
27	0xbd371e23	-0.044706475
28	0xbd423b21	-0.04741967
29	0x3d6edc4c	0.05831556
30	0x3d9f92f9	0.07791705
31	0x3da753b8	0.08170265
32	0x3d9965ae	0.07490097
33	0xbe11c0f1	-0.14233758
34	0x3dc491a6	0.09598093
35	0x3d43eee5	0.04783525
36	0x3c8e91a6	0.017403435
37	0xbe0da657	-0.13832985
38	0x3d851f5e	0.065001234
39	0x3c46c634	0.012132216
40	0x3d9a1bc4	0.07524827
41	0x3cd93ad7	0.026517315
42	0xbdb5adf9	-0.08871073
43	0xbc6f7c9e	-0.014617113
44	0x3dfb1d35	0.1226143
45	0xbd0cb7f6	-0.034355126
46	0x3d4fd7a9	0.05074278
47	0xba5c285a	-0.0008398347
48	0xbdb0f1c4	-0.08639863
49	0xbbaaf46e	-0.0052171266
50	0xbd15baa5	-0.03655495
51	0xbd97a700	-0.074048996
52	0x3e04868c	0.1294195
53	0xbd07f729	-0.033194695
54	0x3ca93db9	0.020659314
55	0xbd178bae	-0.036998443
56	0x3dc47b00	0.09593773
57	0x3d81b825	0.06333951
58	0xbd2a344c	-0.04155378
59	0x3d6befcb	0.05760173
60	0x3be18fef	0.0068836133
61	0xbdc548e5	-0.09633044
62	0x3d4f1739	0.050559256
63	0x3d356f71	0.044295732
64	0xbd88ee69	-0.06686098
65	0x3e1ab801	0.15109254
66	0x3d66e6ea	0.05637256
67	0x3c007790	0.007841006
68	0x3d4252c3	0.04744221
69	0xbd64f893	-0.05590112
70	0x3dcdd8a7	0.10051089
71	0x3ce1c475	0.027559498
72	0x3d3f6dcd	0.046735574
73	0x3d16e42c	0.036838695
74	0x3e12ae88	0.14324391
75	0x3d1651aa	0.036698975
76	0x3ca9dc80	0.020735025
77	0xbdb59346	-0.08865981
78	0xbc92e35a	-0.017930675
79	0x3b0fb457	0.002192756
80	0xbc8746fc	-0.01651334
81	0x3d775c03	0.060390484
82	0xbd82c990	-0.06386101
83	0xbd4a8787	-0.049445655
84	0xbd70f8bd	-0.058830965
85	0xbdaa96d9	-0.08329553
86	0xbd9a351d	-0.07529662
87	0x3de79e86	0.11309533
88	0xbd92f9d0	-0.07176554
89	0x3cc55237	0.024087055
90	0xbcd748f6	-0.026279908
91	0x3e13984f	0.1441357
92	0xbb5f47e1	-0.0034069943
93	0x3d29d814	0.041465834
94	0x3d948399	0.07251663
95	0xbde8dae7	-0.11369877
96	0xbbbeee26	-0.0058267293
97	0x3c8011a6	0.015633415
98	0x3d8f95f3	0.070110224
99	0xbd9fda07	-0.07805257
100	0xbca60a20	-0.0202685
101	0xbd6610bc	-0.056168303
102	0xbb23c739	-0.0024990572
103	0xbd95739d	-0.07297442
104	0xbdf24254	-0.11829057
105	0x3b990a70	0.0046704337
106	0xbd892e50	-0.066982865
107	0x3c859d09	0.016310232
108	0xbde0e5e7	-0.109813504
109	0xbc25f7d7	-0.01012989
110	0xbe0f3778	-0.13986003
111	0x3ce4e2af	0.027940122
112	0xbc191a5b	-0.009344663
113	0x3b8486fe	0.0040444126
114	0xbce28bb2	-0.027654503
115	0x3d167b9c	0.036738977
116	0x3d935760	0.071944
117	0xbdaf8eb9	-0.08572144
118	0x3e02ffe2	0.12792924
119	0xbd4c3e36	-0.049864016
120	0x3b86854d	0.004105246
121	0xbdb1a3b2	-0.086738005
122	0xbd78727d	-0.06065606
123	0x3d33ea21	0.043924455
124	0xbc1c0a4d	-0.00952394
125	0xbabd590e	-0.0014446096
126	0x3d942ff8	0.07235712
127	0x3c9ec07f	0.019378899
128	0xbceb57cc	-0.028728388
129	0xbd4e0efd	-0.050307263
130	0x3d30d5df	0.043172713
131	0x3dc5f38c	0.096655935
132	0xbbbb3602	-0.0057132253
133	0xbd93cc52	-0.072167054
134	0xbcbb539a	-0.022867013
135	0x3d8743ee	0.066047534
136	0xbd9b5a1d	-0.07585547
137	0x3c8c15c6	0.017100226
138	0xbcea020b	-0.028565427
139	0x3da38924	0.07985142
140	0xbd8a2110	-0.067445874
141	0xbdafb393	-0.08579173
142	0x3ca2501d	0.019813592
143	0xbd2ae761	-0.041724566
144	0xbc90d197	-0.017678065
145	0xbd19b370	-0.03752464
146	0xbcafec59	-0.021475004
147	0x3d88467c	0.06654069
148	0xbd92ac90	-0.0716182
149	0xbc3670ea	-0.011135319
150	0x3d7b2a2c	0.061319515
151	0x3d31576a	0.043296255
152	0xbc72faf1	-0.014830337
153	0x3d26adcf	0.0406931
154	0x3d5f4228	0.05450645
155	0xbdbdfb63	-0.09276464
156	0xbc35f04e	-0.011104656
157	0xbd95cbbd	-0.073142506
158	0x3de172c3	0.11008217
159	0xbb76ef27	-0.0037679167
160	0xbc61fe06	-0.013793474
161	0xbde75875	-0.11296169
162	0xbdbcdfdb	-0.092223845
163	0xbd5c2a29	-0.053751145
164	0xbdf02496	-0.11725728
165	0xbd777292	-0.060411997
166	0x3cc70453	0.024294054
167	0xbd0df25d	-0.034654964
168	0xbc501ac7	-0.012701697
169	0x3da01ba9	0.07817776
170	0xbd7ec6ce	-0.062201314
171	0xbb82c85d	-0.0039911703
172	0xbb70ef1c	-0.0036763614
173	0xbc24968e	-0.010045661
174	0xbc9df884	-0.01928354
175	0x3cc4a0b4	0.02400241
176	0xbcfb4527	-0.030672623
177	0x3d56b6ca	0.052420415
178	0xbd35a806	-0.044349693
179	0xbd8f94d5	-0.07010809
180	0x3d82e4d4	0.06391302
181	0x3d6ad8e9	0.057335768
182	0xb9b7c9c2	-0.000350548
183	0x3cfb7d61	0.030699434
184	0x3d34127f	0.04396295
185	0xbcadbed4	-0.021209158
186	0x3cb0ebb9	0.021596776
187	0xbd56e798	-0.05246696
188	0xbd9ed8d4	-0.077562004
189	0x3cfa4431	0.030550094
190	0xbc9614d6	-0.018320482
191	0x3c131f54	0.008979637
192	0xbd904de1	-0.07046104
193	0x3de925b2	0.11384143
194	0xbd57f6b5	-0.052725513
195	0xbc08a34d	-0.008339715
196	0x3ccfab39	0.0253502
197	0xbb2a415e	-0.0025978903
198	0xbd69c7e9	-0.057075415
199	0xbd6d21c1	-0.05789352
200	0xbd4cbbfa	-0.049983956
201	0x3cfc6dcb	0.030814072
202	0xbd678b6d	-0.05652945
203	0x3c95e907	0.018299593
204	0xbdc837d5	-0.09776274
205	0xbd9b13d2	-0.0757214
206	0x3d128e57	0.035780277
207	0x3b45141a	0.0030071796
208	0xbc80f994	-0.015744008
209	0x3be6e7be	0.007046669
210	0xbd5d9e17	-0.054105844
211	0xbd85966f	-0.065228336
212	0x3d176dea	0.036970057
213	0x3ce601dd	0.02807706
214	0xbcd082cb	-0.025452992
215	0xbc66ff91	-0.014099018
216	0x3d0f2437	0.034946647
217	0xbdcd66ef	-0.10029399
218	0x3db9bdca	0.090694025
219	0xbd1f9879	-0.03896377
220	0x3e018b77	0.12650858
221	0x3cbfe8d7	0.023426456
222	0x3d8f2202	0.06988908
223	0x3d70bc60	0.0587734
224	0xbdca32e4	-0.09872988
225	0x3d211b2b	0.03933255
226	0x3d974d4c	0.0738779
227	0x3abe646e	0.001452578
228	0xbdc0beee	-0.09411417
229	0xbcfcb067	-0.030845834
230	0xbdd80123	-0.10547092
231	0x3bea9ba6	0.007159668
232	0x3d071c40	0.032985926
233	0x3d4e0cef	0.050305303
234	0xbd349e05	-0.04409601
235	0xbd95c850	-0.07313597
236	0xbd71fbc5	-0.059077997
237	0xbd3fdd2f	-0.046841796
238	0xbca2a4df	-0.019854007
239	0x3d9bd2db	0.07608577
240	0x3c64cf52	0.013965445
241	0xbd98663a	-0.07441373
242	0xbd0a9160	-0.033830047
243	0xbd88671c	-0.066602916
244	0xbd3e2ca4	-0.04642929
245	0xbda26768	-0.079298794
246	0xbdc97068	-0.09835893
247	0xbdaa06c1	-0.083020695
248	0x3ce5a2e3	0.028031772
249	0xbd7ccdb6	-0.06171962
250	0xbb24cbbc	-0.002514585
251	0xbd97aa59	-0.07405538
252	0x3d6804ba	0.056645133
253	0xbd9090f9	-0.07058901
254	0xbdb8c190	-0.09021294
255	0x3c2f9ea8	0.010718979

fc2.bias f4 [84]
0	0xbe802715	-0.25029817
1	0xbd6ba3e9	-0.057529364
2	0x3c0bcc0c	0.008532535
3	0xbcf7794a	-0.030209202
4	0xbb250010	-0.002517704
5	0x3d2fd247	0.042925145
6	0x3ed5fc9b	0.41794285
7	0x3d8280a6	0.06372194
8	0xbdd2a1e2	-0.10284783
9	0x3e05c574	0.13063604
10	0xbb087dc4	-0.0020826915
11	0x3e77bf29	0.24194016
12	0x3e932062	0.28735644
13	0xbd74346a	-0.0596203
14	0x3e8a02be	0.26955217
15	0xbdc2beec	-0.09509072
16	0xbd277c32	-0.040889926
17	0x3d1df48e	0.038563304
18	0xbd285c2c	-0.041103527
19	0xbe8fbde3	-0.2807456
20	0xbc14fff6	-0.009094229
21	0x3e3363a5	0.1751848
22	0xbbb192b1	-0.0054190983
23	0xbcabee4d	-0.020987654
24	0xbdc8a30c	-0.09796724
25	0xbce85533	-0.028360939
26	0xbd18afab	-0.037276905
27	0x3c9ae729	0.018909054
28	0x3e49ce3d	0.1970758
29	0xbdb67285	-0.089085616
30	0xbd81d36c	-0.06339154
31	0xbcd15ede	-0.025557932
32	0x3c28b629	0.010297337
33	0x3adc8d1b	0.0016826721
34	0xbc76d286	-0.015064841
35	0x3e0b5c31	0.13609387
36	0x3d13c611	0.036077563
37	0x3ec518f1	0.3849559
38	0x3deb1a9c	0.11479685
39	0x3dca380b	0.098739706
40	0x3e0e8682	0.13918498
41	0x3e395db7	0.18102156
42	0xbd91a651	-0.071118005
43	0x3d321307	0.043475177
44	0x3e4523f6	0.19252
45	0xbda34c83	-0.07973578
46	0x3e663cc8	0.22484124
47	0xbd1de0f5	-0.038544614
48	0x3e29ed47	0.1659442
49	0xbd48f723	-0.049063813
50	0xbdd1a523	-0.102365755
51	0xbcf87ffc	-0.030334465
52	0xbc1bd7c3	-0.009511891
53	0x3e2d178d	0.16903515
54	0x3e06c41e	0.1316075
55	0x3e366db8	0.17815292
56	0xbd89aaf4	-0.0672206
57	0xbda46c08	-0.08028418
58	0xbd3a7fb4	-0.045531943
59	0xbd32063f	-0.043462988
60	0x3d0acf8f	0.03388935
61	0xbbc444c5	-0.0059896433
62	0x3d241920	0.040063024
63	0x3dfaabf3	0.12239828
64	0xbd0c3702	-0.034232147
65	0x3e1b4601	0.15163423
66	0x3e2303c9	0.15919413
67	0x3d57da60	0.052698493
68	0xbd60629b	-0.054781538
69	0x3d35093e	0.044198267
70	0x3e0cde36	0.13756642
71	0xbd5e6380	-0.05429411
72	0x3c971e04	0.01844693
73	0x3d00a3f9	0.031406377
74	0xbda0ee39	-0.07857937
75	0x3d614b87	0.05500367
76	0x3d095273	0.033525895
77	0xbc9a4b86	-0.01883484
78	0x3d242d75	0.040082414
79	0x3e51f7a3	0.20504622
80	0x3eaaaaef	0.33333537
81	0x3bf5a2d3	0.007496217
82	0x3e911e0a	0.2834323
83	0xbd174854	-0.03693421

fc3.weight f4 [10, 84]
0	0x3e27540e	0.16340658
1	0xbde3015b	-0.11084243
2	0x3dbcf982	0.09227277
3	0xbdc1e417	-0.09467333
4	0x3d501c4f	0.050808247
5	0x3d74b791	0.059745375
6	0xbe10b412	-0.14131191
7	0xbde9d9b5	-0.114184774
8	0x3c35bf9a	0.011093045
9	0xbda7637a	-0.081732705
10	0x3d3db677	0.04631659
11	0xbe4f430f	-0.20240425
12	0x3dcc000c	0.099609464
13	0xbd7d6b43	-0.06186987
14	0xbe206ce1	-0.15666534
15	0x3db9713a	0.090547994
16	0x3e595f66	0.21227798
17	0x3e21cc23	0.15800528
18	0x3e1d3a86	0.15354356
19	0xbb9d87e6	-0.00480746
20	0x3e23ba6f	0.15989088
21	0xbd357b0b	-0.044306796
22	0xbd13d55b	-0.036092144
23	0xba5b7e6c	-0.00083730253
24	0xbd8de219	-0.0692789
25	0xbdc9be44	-0.098507434
26	0x3e078518	0.13234365
27	0x3e30901f	0.17242478
28	0x3d9c8bd4	0.076438576
29	0xbdb3f25f	-0.08786463
30	0x3d6909d1	0.056894127
31	0x3dd309fa	0.10304637
32	0x3c9f5b70	0.01945278
33	0xbdd01573	-0.10160341
34	0x3e6db93d	0.23215194
35	0xbe533442	-0.20625404
36	0xbb52dbca	-0.0032174462
37	0x3ec6ae4c	0.38804853
38	0xbe649605	-0.22322853
39	0x3d323341	0.04350591
40	0x3d0a73de	0.033801906
41	0xbd5ead17	-0.05436429
42	0xbd8b8ef7	-0.06814378
43	0x3e699e87	0.2281438
44	0xbe5f9f04	-0.21838003
45	0xbd5be1db	-0.05368219
46	0xbcbfddd5	-0.023421207
47	0x3d215bcc	0.039394185
48	0x3e6a2594	0.22865897
49	0xbccf9839	-0.02534114
50	0xbdbbd27c	-0.09171006
51	0x3db5aaba	0.08870454
52	0xbdd8ea50	-0.105915666
53	0xbe0568b1	-0.13028218
54	0xbcdafbad	-0.026731336
55	0x3e7f08b7	0.24905668
56	0xbd932f2f	-0.07186734
57	0xbdb099f3	-0.086231135
58	0xbe2af039	-0.166932
59	0x3db7b7cf	0.089706056
60	0x3d772a49	0.06034306
61	0xbd5dc3fb	-0.05414198
62	0xbd829304	-0.06375697
63	0x3da4f2a4	0.080540925
64	0xbdd6a84c	-0.10481319
65	0xbd75c414	-0.060001448
66	0x3def5af4	0.1168727
67	0x3da82dcb	0.08211859
68	0x3d33712b	0.043809097
69	0x3d6200bc	0.05517648
70	0x3e622818	0.22085607
71	0xbdd7b4ba	-0.10532518
72	0x3da2572d	0.07926784
73	0x3ddb6305	0.10712246
74	0xbd8c8a8c	-0.06862363
75	0x3d9c6e3f	0.07638215
76	0x3d338d83	0.043836128
77	0x3deb66e8	0.11494237
78	0x3e78c4ed	0.24293871
79	0xbe10b2a8	-0.14130652
80	0xbe2146f5	-0.15749724
81	0xbd249cb7	-0.040188517
82	0xbe37cdfa	-0.17949668
83	0x3c54ede0	0.012996167
84	0x3e8bee12	0.2733007
85	0xb9e25b5d	-0.0004317415
86	0x3d256df8	0.040388077
87	0xbd8b1a8a	-0.06792171
88	0xbd2fa19d	-0.042878736
89	0x3cfe859a	0.031069566
90	0xbe7d4343	-0.2473269
91	0xbe2bcbba	-0.16776934
92	0x3db1e966	0.08687095
93	0xbe7583e5	-0.23976095
94	0xbc1f31aa	-0.009716431
95	0x3dd40171	0.103518374
96	0xbbb0f152	-0.0053998614
97	0xbdde2557	-0.10846966
98	0xbe9a8bd1	-0.30184796
99	0x3cfb5094	0.030678071
100	0x3e87cb32	0.26522213
101	0xbd560eba	-0.052260138
102	0x3b4fc7d2	0.0031704796
103	0x3e868900	0.26276398
104	0x3d961622	0.0732844
105	0x3d6d0c55	0.05787309
106	0xbd3425b6	-0.043981276
107	0x3eb7d12a	0.35901767
108	0xbd584887	-0.052803542
109	0x3c2b7734	0.010465432
110	0x3de8eb52	0.11373009
111	0x3d0cd33f	0.034381147
112	0xbe790b46	-0.24320707
113	0xbacff069	-0.0015864494
114	0x3ded548e	0.11588393
115	0xbcd9809d	-0.026550585
116	0x3c5b8c9a	0.013400221
117	0xbdac18bc	-0.08403155
118	0xbc77301e	-0.015087156
119	0x3db9c28f	0.09070312
120	0x3d203f07	0.039122608
121	0xbe5cfbe1	-0.21580459
122	0xbe0f4d0e	-0.13994238
123	0xbe3572cb	-0.17719571
124	0xbe691611	-0.22762324
125	0xbe8256d4	-0.2545687
126	0xbc21b4b6	-0.009869745
127	0x3dfc1f86	0.123107
128	0xbd76254e	-0.06009417
129	0x3e21ccc4	0.15800768
130	0xbd498900	-0.04920292
131	0xbe17cdd1	-0.14824606
132	0xbd209dc5	-0.03921296
133	0x3dd22732	0.10261382
134	0xbd1f8742	-0.03894735
135	0x3bf7a3cf	0.0075573693
136	0x3dd3ad62	0.103358045
137	0xbdbf1c67	-0.09331589
138	0xbd0a2421	-0.03372586
139	0x3e7167db	0.23574774
140	0xbd32c38b	-0.043643516
141	0xbd492116	-0.04910382
142	0x3edd9512	0.43277794
143	0x3d1043be	0.035220854
144	0x3dd60b2c	0.104513496
145	0xbdb4205c	-0.087952346
146	0x3e179857	0.14804207
147	0x3e019446	0.12654218
148	0xbc505fe1	-0.012718172
149	0xbe6257a0	-0.22103739
150	0x3b20c9aa	0.0024534264
151	0xbcf3e86b	-0.029773911
152	0xbc4fa38d	-0.012673271
153	0xbdf8cc36	-0.12148325
154	0x3e804e05	0.25059524
155	0xbe1e3bba	-0.15452471
156	0xbe68513b	-0.22687237
157	0x3d2ac0bb	0.04168771
158	0xbdd6242a	-0.104561165
159	0x3da59b5f	0.08086275
160	0x3da419d2	0.08012737
161	0x3d94622e	0.07245289
162	0xbe48bfc6	-0.19604406
163	0x3dbb8623	0.09156444
164	0xbd1526b3	-0.03641386
165	0xbe8b2208	-0.271744
166	0xbdc9f247	-0.09860664
167	0x3ba721eb	0.005100479
168	0x3c1b55b1	0.00948088
169	0x3d2e897b	0.04261158
170	0x3ddb8c8e	0.10720168
171	0x3e507e39	0.2036065
172	0xbca5e227	-0.02024944
173	0x3e7e9eee	0.24865314
174	0x3cda65d2	0.02665988
175	0x3af6b6ea	0.0018822823
176	0xbd22f583	-0.03978492
177	0x3e1301b5	0.1435612
178	0xbde03603	-0.10947802
179	0x3e1a0205	0.15039833
180	0xbcdc1c09	-0.026868837
181	0x3cbaf830	0.022823423
182	0x3e242237	0.16028677
183	0xbd871479	-0.06595702
184	0x3c2fff3b	0.010742004
185	0xbdefecfc	-0.11715123
186	0x3d2e7169	0.042588625
187	0xbe009b00	-0.12559128
188	0xbdc26017	-0.09490984
189	0xbd73d689	-0.05953077
190	0x3d9187b2	0.0710596
191	0xbceb3ebd	-0.02871644
192	0x3d89dbfc	0.06731412
193	0x3cca5c53	0.024702227
194	0xbd0eef9c	-0.034896478
195	0x3cd2484b	0.025669238
196	0x3e7ac6bb	0.24489872
197	0xbdae9557	-0.08524578
198	0xbea0ff38	-0.31444716
199	0xbca040ca	-0.019562144
200	0x3ca8db98	0.020612523
201	0xbd9ef642	-0.07761814
202	0x3d95162e	0.07279621
203	0x3e4bd151	0.19904067
204	0x3e001fb1	0.1251209
205	0x3e6a18cc	0.22861022
206	0x3e752d0d	0.23942967
207	0xbe5b9bb3	-0.21446113
208	0x3e6727eb	0.22573821
209	0x3e6187cd	0.2202446
210	0xbb6c4fcc	-0.0036058305
211	0x3e102b9e	0.14079139
212	0x3d6df892	0.058098383
213	0x3d890ab8	0.066914976
214	0x3ceb9019	0.028755235
215	0x3e787a7b	0.24265473
216	0xbd22538b	-0.039630454
217	0xbd818bbb	-0.063254796
218	0xbe069190	-0.13141465
219	0xba951da1	-0.0011376628
220	0xbe08eaa0	-0.13370752
221	0xbe5a4f5b	-0.21319334
222	0x3e2bc5e5	0.1677471
223	0xbdd358c9	-0.10319669
224	0xbb49fc18	-0.0030820426
225	0xbe2c71f1	-0.1684034
226	0xbe66b888	-0.2253133
227	0xbde31d52	-0.11089577
228	0x3d8a0196	0.06738584
229	0x3c10e979	0.008844727
230	0xbde17fe8	-0.11010724
231	0x3d5e0b70	0.054210126
232	0xbd1dd766	-0.038535498
233	0xbe088029	-0.13330139
234	0xbd3b34cb	-0.045704644
235	0xbe0a19a6	-0.13486347
236	0x3d50feb7	0.051024165
237	0x3e5dcc49	0.2165996
238	0xbd98a418	-0.074531734
239	0x3c981e47	0.018569125
240	0x3da20e47	0.079128794
241	0x3d8168b1	0.063187964
242	0x3d09ab41	0.033610586
243	0xbd162b2f	-0.036662277
244	0xbdca2a42	-0.09871341
245	0x3da68756	0.08131282
246	0x3db1ffdf	0.08691382
247	0x3d98516b	0.07437404
248	0x3d615527	0.05501285
249	0x3d8a3148	0.06747681
250	0x3e498e47	0.19683181
251	0xbd84425c	-0.064579695
252	0xbd4387db	-0.047736984
253	0xbdfd17eb	-0.123580776
254	0xbd820702	-0.06348993
255	0xbca26fe8	-0.019828752

fc3.bias f4 [10]
0	0xbd894cde	-0.067041144
1	0xbf0984d0	-0.5371828
2	0x3e33710e	0.17523596
3	0x3eb1f89b	0.34759983
4	0x3ecc64ea	0.3992074
5	0xbe132b3f	-0.14371966
6	0x3e2b4702	0.16726306
7	0xbea0911d	-0.31360713
8	0x3eb69166	0.35657805
9	0xbe78f756	-0.24313101
